…
dam_0.2:2018-10-21_11-39-02’: No such file or directory
Namespace(adadelta=False, adam=False, alphabet='0123456789abcdefghijklmnopqrstuvwxyz', batchSize=256, beta1=0.5, crnn='', cuda=True, displayInterval=50, eval_all=False, experiment='expr/ctc_env/5k/ctc_adam_0.2:2018-10-21_11-39-02', h_rate=0.2, imgH=32, imgW=100, keep_ratio=False, lr=0.001, max_norm=400, n_test_disp=10, ngpu=1, nh=256, niter=50, random_sample=False, saveInterval=500, trainroot='data/max90k_train_5k.lmdb', valInterval=500, valroot='data/max90k_val_5k.lmdb', workers=4)
Random Seed:  6158
CRNN(
  (cnn): Sequential(
    (conv0): Conv2d(1, 64, kernel_size=(3, 3), stride=(1, 1), padding=(1, 1))
    (relu0): ReLU(inplace)
    (pooling0): MaxPool2d(kernel_size=2, stride=2, padding=0, dilation=1, ceil_mode=False)
    (conv1): Conv2d(64, 128, kernel_size=(3, 3), stride=(1, 1), padding=(1, 1))
    (relu1): ReLU(inplace)
    (pooling1): MaxPool2d(kernel_size=2, stride=2, padding=0, dilation=1, ceil_mode=False)
    (conv2): Conv2d(128, 256, kernel_size=(3, 3), stride=(1, 1), padding=(1, 1))
    (batchnorm2): BatchNorm2d(256, eps=1e-05, momentum=0.1, affine=True, track_running_stats=True)
    (relu2): ReLU(inplace)
    (conv3): Conv2d(256, 256, kernel_size=(3, 3), stride=(1, 1), padding=(1, 1))
    (relu3): ReLU(inplace)
    (pooling2): MaxPool2d(kernel_size=(2, 2), stride=(2, 1), padding=(0, 1), dilation=1, ceil_mode=False)
    (conv4): Conv2d(256, 512, kernel_size=(3, 3), stride=(1, 1), padding=(1, 1))
    (batchnorm4): BatchNorm2d(512, eps=1e-05, momentum=0.1, affine=True, track_running_stats=True)
    (relu4): ReLU(inplace)
    (conv5): Conv2d(512, 512, kernel_size=(3, 3), stride=(1, 1), padding=(1, 1))
    (relu5): ReLU(inplace)
    (pooling3): MaxPool2d(kernel_size=(2, 2), stride=(2, 1), padding=(0, 1), dilation=1, ceil_mode=False)
    (conv6): Conv2d(512, 512, kernel_size=(2, 2), stride=(1, 1))
    (batchnorm6): BatchNorm2d(512, eps=1e-05, momentum=0.1, affine=True, track_running_stats=True)
    (relu6): ReLU(inplace)
  )
  (rnn): Sequential(
    (0): BidirectionalLSTM(
      (rnn): LSTM(512, 256, bidirectional=True)
      (embedding): Linear(in_features=512, out_features=256, bias=True)
    )
    (1): BidirectionalLSTM(
      (rnn): LSTM(256, 256, bidirectional=True)
      (embedding): Linear(in_features=512, out_features=37, bias=True)
    )
  )
)
W1021 11:39:10.714799 15486 clip_grad.py:50] crnn_main.py:218: UserWarning: torch.nn.utils.clip_grad_norm is now deprecated in favor of torch.nn.utils.clip_grad_norm_.
  torch.nn.utils.clip_grad_norm(crnn.parameters(), opt.max_norm)

Traceback (most recent call last):
  File "crnn_main.py", line 250, in <module>
    crnn.state_dict(), '{0}/netCRNN_{1}_{2}.pth'.format(opt.experiment, epoch, i))
…
